rca_gnn_model.pth (torch, 171989 bytes, 9 tensors)

conv1.att_src f4 [1, 4, 64]
0	0x3edc853d	0.43070403
1	0xbb8f02ef	-0.0043643634
2	0xbdefca47	-0.11708503
3	0x3e9a7323	0.30165967
4	0xbec4c260	-0.38429546
5	0x3ec2bcab	0.38034567
6	0x3e14b0d9	0.14520587
7	0x3ea3388b	0.31879076
8	0x3e9463cd	0.28982392
9	0x3eae1e44	0.34007466
10	0xbe23863f	-0.1596918
11	0xbeeb9f11	-0.46019796
12	0x3e897e35	0.268541
13	0x3cda6d73	0.026663518
14	0x3df2cb00	0.118551254
15	0xbe0d4a7b	-0.13797943
16	0xbe427669	-0.18990482
17	0xbd86bd1b	-0.06579038
18	0x3eaeb6b8	0.34123778
19	0xbd3e851f	-0.046513673
20	0x3d87c39e	0.06629108
21	0xbe0d19ff	-0.13779448
22	0xbd9c3435	-0.07627145
23	0x3e27007d	0.1630878
24	0xbe9d368a	-0.30705673
25	0xbd154875	-0.036446054
26	0x3cd4570f	0.025920419
27	0x3dfe37e6	0.124130055
28	0x3d61599b	0.055017095
29	0x3eab2aca	0.33431083
30	0x3e9348ee	0.28766578
31	0x3ec21a34	0.37910616
32	0xbec994b4	-0.39371264
33	0x3ee3d91c	0.4450158
34	0x3e9e1276	0.3087346
35	0xbea47b0e	-0.32125133
36	0xbeb667bf	-0.35626027
37	0x3e65b390	0.22431779
38	0x3e52da51	0.20591094
39	0xbe196302	-0.14979175
40	0xbe2e3283	-0.17011456
41	0x3defff50	0.11718619
42	0x3e6fa972	0.23404482
43	0x3e777c70	0.24168563
44	0x3e0c0164	0.13672405
45	0x3eb01065	0.34387508
46	0x3dd8e3e7	0.10590344
47	0x3e840677	0.25786182
48	0x3e819fb2	0.2531715
49	0x3ed3b1e8	0.4134667
50	0xbead79d3	-0.33882007
51	0x3df26e87	0.11837488
52	0x3edf8254	0.4365412
53	0x3e270cfe	0.1631355
54	0x3ca5b48c	0.020227693
55	0xbeeb2a25	-0.4593059
56	0x3e6c8a49	0.23099627
57	0xbeac7421	-0.3368235
58	0xbd57f77a	-0.052726246
59	0x3dfb451d	0.12269042
60	0x3ed9755a	0.42472345
61	0xbec7203e	-0.38891786
62	0xbe910ec3	-0.28331575
63	0xbe639af6	-0.22227082
64	0xbe02a542	-0.12758353
65	0xbe8cf600	-0.27531433
66	0x3dd18fcd	0.10232506
67	0xbe00f10c	-0.12591952
68	0xbe60ae78	-0.21941555
69	0xbe5d40d3	-0.2160676
70	0xbe0784ee	-0.13234302
71	0x3deeafc7	0.116546206
72	0x3ea094c2	0.31363493
73	0xbe9ff9d2	-0.31245285
74	0x3e626b24	0.22111183
75	0x3e4330be	0.19061562
76	0xbe3e7f45	-0.18603237
77	0xbe69886c	-0.22805947
78	0xbd4907f5	-0.049079854
79	0xbc45dfd0	-0.012077287
80	0xbe2e9ad6	-0.17051253
81	0xbe52eb63	-0.20597605
82	0x3ea6fb81	0.32613757
83	0xbe6ba46a	-0.23011938
84	0xbcb1c2f0	-0.021699399
85	0x3d22a2d0	0.03970605
86	0xbe12a639	-0.14321221
87	0x3eb4f939	0.35346392
88	0xbe7ae47c	-0.24501222
89	0x3e18d2a2	0.149241
90	0x3eb08e5d	0.34483615
91	0x3ea3742a	0.31924564
92	0x3ddbc083	0.10730078
93	0xbe804e5b	-0.2505978
94	0x3e2308f1	0.1592138
95	0x3e75f4fa	0.24019232
96	0x3dacb752	0.08433403
97	0x3dd7ea5d	0.10542748
98	0x3e12a9d6	0.143226
99	0xbd564b30	-0.0523178
100	0xbd6f523d	-0.058428038
101	0xbddb93d8	-0.10721558
102	0x3e677177	0.22601877
103	0xbe297a79	-0.16550626
104	0x3de3fe96	0.11132543
105	0xbce8bd42	-0.028410558
106	0x3e62db29	0.22153915
107	0x3daf8db1	0.08571947
108	0xbe424588	-0.18971837
109	0xbe294443	-0.16529946
110	0x3d2c013d	0.04199337
111	0x3dc2939f	0.09500813
112	0x3ec23d6c	0.37937486
113	0x3b5402a7	0.0032350214
114	0xbea4f562	-0.32218462
115	0xbe6798f7	-0.22616945
116	0xbd5f6e85	-0.05454876
117	0x3d3d9110	0.04628092
118	0x3d89970a	0.067182615
119	0xbdfb7c8b	-0.12279614
120	0x3de24cfb	0.11049839
121	0xbe80c6cb	-0.25151667
122	0x3e02800e	0.12744161
123	0xbdfca636	-0.1233639
124	0x3e35ce83	0.17754559
125	0xbe439110	-0.19098306
126	0xbdc14108	-0.09436232
127	0x3dc75c18	0.09734362
128	0xbc5ffe38	-0.01367145
129	0xbebc4b34	-0.36776125
130	0x3ea3b2f8	0.3197248
131	0xbe5f1a24	-0.21787316
132	0x3ecb6048	0.39721894
133	0x3e6c6b57	0.23087822
134	0xbea263da	-0.31716806
135	0x3e04ad0e	0.1295664
136	0x3db3890b	0.08766373
137	0x3d18f905	0.03734686
138	0x3e9935a5	0.2992374
139	0xbe22eab2	-0.15909842
140	0x3dd0de37	0.10198634
141	0x3e9461be	0.2898082
142	0xbe3ef543	-0.18648247
143	0x3de114aa	0.109902695
144	0xbd8edea4	-0.06976059
145	0x3e50f48d	0.20405789
146	0x3d3ebab2	0.046564765
147	0xbda264a2	-0.079293504
148	0x3cfd7ef6	0.030944329
149	0x3e9a8074	0.30176127
150	0x3e5883df	0.21144055
151	0x3d363acc	0.044489667
152	0xbe3875f6	-0.18013749
153	0x3d45d52e	0.048299007
154	0xbe54b319	-0.20771445
155	0xbead5b1a	-0.33858567
156	0xbe896023	-0.2683116
157	0x3ed09ab9	0.40743044
158	0xbd32605e	-0.043548934
159	0x3e7e7cf1	0.24852349
160	0x3de49232	0.11160697
161	0xbd9d9c91	-0.07695878
162	0xbec8a87f	-0.39191052
163	0x3e192cc8	0.14958489
164	0x3c57b280	0.013165116
165	0xbe22f0cd	-0.1591217
166	0xbe01da48	-0.12680924
167	0x3d761643	0.060079824
168	0xbcbb6d8c	-0.022879384
169	0x3de99a00	0.11406326
170	0x3d61d8ef	0.055138525
171	0xbbbe2a93	-0.005803415
172	0x3eccdaea	0.40010768
173	0x3e2aece3	0.16691928
174	0x3e2e5e66	0.17028198
175	0xbebaba0a	-0.36470062
176	0x3de8b4fe	0.113626465
177	0x3e1f91d6	0.15582976
178	0x3e217629	0.15767731
179	0x3dc492d5	0.095983185
180	0x3cb8bcca	0.02255096
181	0xbe64efe6	-0.22357139
182	0xbdd03693	-0.10166659
183	0x3dbf7740	0.09348917
184	0x3d072289	0.03299192
185	0xbc38713c	-0.011257466
186	0x3dd0d339	0.101965375
187	0x3e05811d	0.13037534
188	0x3d765ba6	0.060145997
189	0xbce3b79a	-0.027797509
190	0xbd421211	-0.04738051
191	0xbe13c6b1	-0.14431264
192	0xbeae50c7	-0.34046003
193	0xbed754e4	-0.42056954
194	0xbe8c6364	-0.2741958
195	0xbe127017	-0.14300571
196	0x3c79f895	0.0152570205
197	0x3d690f02	0.05689908
198	0x3bd5e418	0.006527435
199	0xbd03fb23	-0.032221925
200	0x3ca28d58	0.019842789
201	0x3e3586e8	0.17727244
202	0x3e623a32	0.22092512
203	0xbc0f3b69	-0.008742192
204	0xbe75270d	-0.23940678
205	0xbccffbd5	-0.025388638
206	0x3dc86795	0.09785382
207	0xbe4fd75e	-0.20297
208	0xbd4a17b3	-0.049339008
209	0xbe0bf3e0	-0.1366725
210	0xbde2145f	-0.11039042
211	0x3ec5f61a	0.38664323
212	0x3dd779b9	0.10521264
213	0x3c22e1d6	0.009941539
214	0xbec64939	-0.3872774
215	0xbe96c5ce	-0.29447788
216	0xbebcf742	-0.36907393
217	0xbe94c6ad	-0.29057828
218	0xbe1f9db5	-0.15587504
219	0x3df4a069	0.11944658
220	0xbe2654a5	-0.16243227
221	0x3e0096de	0.12557551
222	0xbc0a99fe	-0.008459566
223	0xbe7966f3	-0.24355678
224	0x3eaa4124	0.33252823
225	0xbd6e26f2	-0.05814261
226	0xbe76f1c3	-0.24115662
227	0x3d0a190a	0.033715285
228	0xbe442789	-0.19155706
229	0x3e0125c9	0.1261207
230	0xbe3346b6	-0.17507443
231	0x3df32ce4	0.118737966
232	0x3e218a22	0.1577535
233	0xbe6dcbf5	-0.23222335
234	0xbc226555	-0.009911855
235	0x3e2c94c9	0.16853632
236	0xbdc1d64a	-0.094647005
237	0xbd75e761	-0.060035113
238	0xbe6bcd49	-0.23027529
239	0xbc3fec7c	-0.011714097
240	0x3daf2130	0.08551252
241	0xbec8a368	-0.3918717
242	0xbc98e86c	-0.018665515
243	0x3e8bdd60	0.27317333
244	0xbd821d92	-0.06353296
245	0x3e8b408d	0.27197686
246	0x3dcdd4f7	0.100503854
247	0x3e8feb64	0.28109276
248	0xbe0f46ba	-0.13991824
249	0xbe4c5304	-0.19953543
250	0x3df1b0dd	0.11801312
251	0x3d9327a0	0.07185292
252	0x3d970eee	0.073758945
253	0xbc8880fc	-0.016663067
254	0x3ea18909	0.31549862
255	0x3e2002f5	0.15626128

conv1.att_dst f4 [1, 4, 64]
0	0xbe3da3ac	-0.18519467
1	0x3d6af552	0.057362862
2	0x3e87d7eb	0.2653192
3	0x3e875374	0.26430857
4	0x3e396c1d	0.18107648
5	0x3dc30dcc	0.09524116
6	0x3d076f9a	0.033065416
7	0xbc848971	-0.016178818
8	0xbe482516	-0.19545397
9	0xbe88578d	-0.26629296
10	0xbe148f59	-0.14507808
11	0x3e3f6368	0.18690264
12	0x3d3cb184	0.04606773
13	0x3e560032	0.20898512
14	0xbdc130f9	-0.09433169
15	0x3ce11e21	0.027480187
16	0x3e9da732	0.30791622
17	0xbde0c7a3	-0.10975578
18	0xbe11207d	-0.1417255
19	0xbe4c9454	-0.19978458
20	0x3e96684a	0.2937644
21	0xbdc91593	-0.09818568
22	0x3c3d9399	0.011570835
23	0xbd4980aa	-0.04919497
24	0x3e761d0e	0.24034521
25	0x3e0a0e54	0.13482028
26	0xbde1c5ee	-0.1102408
27	0x3e06bb62	0.13157418
28	0x3cb1280f	0.021625547
29	0xbe0d1e03	-0.1378098
30	0xbe99cafd	-0.3003768
31	0xbe7cff2b	-0.24706714
32	0x3ba28ac3	0.0049603893
33	0x3b110f26	0.0022134273
34	0x3d04793e	0.032342188
35	0xbbc62884	-0.0060473103
36	0x3e6b2d77	0.22966562
37	0x3e199d04	0.15001303
38	0xbe8140f6	-0.25244874
39	0xbd0447b6	-0.03229495
40	0x3e45329e	0.1925759
41	0x3d848eb7	0.06472533
42	0xbd452bb3	-0.048137378
43	0xbdb8031f	-0.0898497
44	0xbc948865	-0.018131444
45	0xbe072b1f	-0.13200043
46	0x3dae0c8c	0.08498487
47	0x3e2b356f	0.16719602
48	0xbe922729	-0.28545502
49	0xbe5f43f7	-0.2180327
50	0x3e91c05b	0.28467068
51	0x3d7a44b2	0.06110067
52	0xbda151f0	-0.078769565
53	0xbca744ea	-0.020418603
54	0xbe93a75b	-0.2883862
55	0x3e50f057	0.20404182
56	0xbdabda06	-0.08391194
57	0x3d9921e0	0.07477164
58	0xbcdc7af9	-0.026914107
59	0x3d903cbc	0.07042834
60	0xbc9d538e	-0.019204881
61	0x3c000a50	0.007814959
62	0x3ddd17d0	0.107955575
63	0x3e3edb35	0.18638308
64	0xbe627ab5	-0.22117122
65	0x3dd67305	0.10471157
66	0xbc9fcdf4	-0.019507386
67	0xbd95aa5e	-0.073078856
68	0x3dad66a3	0.08466842
69	0x3cb5f507	0.022211565
70	0x3d5244f8	0.051335305
71	0xbe25ac09	-0.16178907
72	0xbe960b3b	-0.29305443
73	0x3e3b145d	0.18269487
74	0x3ddd3967	0.10801964
75	0x3de293f6	0.110633776
76	0x3da79168	0.08182031
77	0x3dc16654	0.09443346
78	0x3e9db2e2	0.3080054
79	0x3dfc8921	0.12330843
80	0x3e788837	0.24270712
81	0x3debaabe	0.11507176
82	0x3dc50fd8	0.096221626
83	0xbddc2968	-0.10750085
84	0x3c84714c	0.016167305
85	0xbc686ec8	-0.014186569
86	0x3ccf7a14	0.025326766
87	0x3de52fc1	0.11190749
88	0xbc9e3183	-0.019310718
89	0x3e2ba0a2	0.16760495
90	0x3da397d2	0.07987942
91	0x3c6a6e24	0.014308486
92	0x3e08d308	0.13361752
93	0xbe7c4c5f	-0.24638508
94	0x3e175bb7	0.1478108
95	0x3c960d67	0.018316938
96	0x3d2dd40d	0.042438556
97	0x3e5061b5	0.20349772
98	0xbe6e3678	-0.23262966
99	0xbd983cd1	-0.07433475
100	0x3cb6eadb	0.022328785
101	0x3e76a727	0.24087201
102	0xbd21163f	-0.039327856
103	0x3e94a542	0.29032332
104	0xbd36bf90	-0.044616282
105	0x3e3d9b07	0.1851617
106	0xbddfaace	-0.1092125
107	0xbdfd1902	-0.123582855
108	0x3e69f892	0.22848728
109	0xbd8358c7	-0.06413417
110	0x3e128bd0	0.14311147
111	0x3ebe7d48	0.37204957
112	0xbe128aeb	-0.14310805
113	0xbd604bd3	-0.05475981
114	0x3e6bdb7a	0.23032942
115	0xbe0de669	-0.13857426
116	0xbda83816	-0.082138225
117	0xbd99d4c9	-0.07511289
118	0x3df372c4	0.11887124
119	0x3cbebf0a	0.023284454
120	0xbdd4bbbf	-0.10387372
121	0xbc4f6fe6	-0.012660956
122	0x3db1a810	0.086746335
123	0xbe1f914c	-0.1558277
124	0xbdca698f	-0.09883415
125	0xbdad806e	-0.08471762
126	0x3dc06e40	0.093960285
127	0xbe37fcc4	-0.17967516
128	0xbd97c382	-0.07410337
129	0xbe1d64ed	-0.15370531
130	0xbe1298e7	-0.1431614
131	0xbe384929	-0.17996658
132	0xbdc08610	-0.094005704
133	0xbe9f1dd8	-0.31077456
134	0xbd94b25e	-0.07260583
135	0xbd86f780	-0.06590176
136	0xbe7bc40e	-0.24586508
137	0xbcebc05c	-0.028778248
138	0xbdab6097	-0.083680324
139	0xbdab9372	-0.08377732
140	0xbc56e7d4	-0.013116796
141	0x3dff3628	0.12461501
142	0x3de705b8	0.11280388
143	0x3d902b0a	0.07039459
144	0xbd8667ea	-0.06562789
145	0xbe8ec466	-0.27884215
146	0x3df8e11f	0.121523134
147	0xbc9d7ff9	-0.019226061
148	0xbce41135	-0.027840236
149	0xbe899023	-0.2686778
150	0x3c33e5e0	0.010980099
151	0x3dad1631	0.08451498
152	0x3e0cc1e8	0.13745844
153	0x3dadd185	0.08487228
154	0x3d845a91	0.06462587
155	0x3e1688c1	0.14700605
156	0x3da4876d	0.08033643
157	0x3ba95a48	0.005168233
158	0xbdcdf242	-0.10055973
159	0xbd58b7fb	-0.052909832
160	0xbad0e805	-0.0015938288
161	0x3d0c9162	0.034318335
162	0x3e00a1e4	0.12561756
163	0xbe72e0e0	-0.23718596
164	0x3c842278	0.016129717
165	0xbe398150	-0.18115735
166	0x3ce405f4	0.02783487
167	0xbd13764d	-0.036001492
168	0x3e9393fb	0.28823838
169	0xbd862472	-0.0654992
170	0x3ce11728	0.027476862
171	0xbd491374	-0.049090818
172	0xbe600e72	-0.2188051
173	0xbdca43a0	-0.0987618
174	0xbdb69143	-0.08914425
175	0x3e28bc03	0.16477971
176	0x3e49d142	0.19708732
177	0xbe87bf58	-0.2651317
178	0xbe418a88	-0.18900502
179	0x3e64805c	0.2231459
180	0xbc8c2de9	-0.017111735
181	0x3c22f327	0.009945667
182	0x39d57b2d	0.000407183
183	0x3da20581	0.07911206
184	0xbd974896	-0.073868915
185	0x3c9144ee	0.017733064
186	0x3dfae51f	0.12250733
187	0xbe03c27f	-0.12867163
188	0xbe0460f1	-0.12927605
189	0xbda47cdf	-0.0803163
190	0x3d6ca88c	0.057777926
191	0xbcc406b1	-0.023928972
192	0x3e8ac3d0	0.27102518
193	0x3e0c3a1e	0.13694045
194	0xbe035e33	-0.12828903
195	0xbdcec585	-0.100962676
196	0xbe906c3e	-0.28207582
197	0xbd307856	-0.04308351
198	0x3dc9c998	0.09852904
199	0xbd8f9690	-0.070111394
200	0xbd80086a	-0.06251605
201	0xbd998ac7	-0.07497173
202	0xbe436fba	-0.19085589
203	0xbde06ffe	-0.10958861
204	0x3e17d51c	0.14827389
205	0x3e05418c	0.13013285
206	0xbde578e7	-0.11204701
207	0xbdfdf9e2	-0.12401177
208	0xbdb6e69e	-0.089307055
209	0xbdcc74fd	-0.09983251
210	0xbc455863	-0.012044999
211	0xbce0dcb1	-0.027448984
212	0xbe0ce74c	-0.13760108
213	0xbcbf35f8	-0.023341164
214	0x3db29d67	0.08721428
215	0x3cf80f6c	0.030280791
216	0x3de5d182	0.11221601
217	0xbc9afd58	-0.018919632
218	0x3dca5f88	0.098815024
219	0xbd70526e	-0.05867236
220	0x3e860361	0.26174453
221	0x3d1d29f4	0.038370088
222	0x3de394ed	0.1111239
223	0xbdf01f37	-0.11724704
224	0xbe7826ce	-0.24233553
225	0x3c0610b4	0.008182693
226	0x3ca43d35	0.020048717
227	0xbcd64363	-0.02615518
228	0x3d1a402a	0.037658848
229	0xbd904eb7	-0.07046264
230	0xbdf412a0	-0.11917615
231	0x3e5111ca	0.20416942
232	0xbe385ce1	-0.1800418
233	0xbbdad212	-0.0066778744
234	0xbccd400d	-0.025054956
235	0xbdba05f0	-0.09083164
236	0xbddada00	-0.106861115
237	0xbdd3ddb1	-0.10345019
238	0xbd9964a6	-0.074899
239	0x3e0611a1	0.13092662
240	0x3e58066c	0.210962
241	0x3e01066c	0.12600106
242	0x3d1a6e95	0.037703115
243	0xbdc195e7	-0.0945242
244	0x3e0b616e	0.13611385
245	0x3e14c4c4	0.14528185
246	0xbe1be1be	-0.15222833
247	0xbe483937	-0.19553076
248	0x3e379d34	0.17931062
249	0xbe71554a	-0.23567691
250	0x3e40ee78	0.18840969
251	0xbe262f26	-0.16228923
252	0xbb797c97	-0.0038068646
253	0xbdb12568	-0.08649713
254	0x3da87c0d	0.08226786
255	0xbe8791e8	-0.26478505

conv1.bias f4 [256]
0	0xbcdfc6f5	-0.02731655
1	0x3b34e3e3	0.0027601651
2	0x3c9a90bf	0.018867848
3	0x3cb20dda	0.02173512
4	0x3c0c3a63	0.008558842
5	0xbcf4a01f	-0.029861508
6	0xbcd1d31e	-0.025613364
7	0x3aacbd05	0.0013178891
8	0xbbe833db	-0.00708626
9	0xbcaeffa2	-0.02136213
10	0x3cbce745	0.023059497
11	0x3c871f71	0.016494485
12	0xbbba37df	-0.00568293
13	0x3c5a1442	0.013310494
14	0x3c2ece51	0.010669307
15	0x3ca5d834	0.020244695
16	0xb9955f21	-0.0002849037
17	0x3b90cf9e	0.004419281
18	0xbc3d2ad3	-0.011545855
19	0x3cf52c99	0.029928492
20	0x3c558771	0.01303278
21	0x3be33f71	0.006935053
22	0x3c52757f	0.012845396
23	0xbc92fd2e	-0.017942991
24	0x3cdf5e7d	0.027266735
25	0x3c1d085c	0.009584513
26	0xbb55f36a	-0.0032646307
27	0xbc310032	-0.010803269
28	0x3c3cb1fd	0.011517045
29	0x3c10ac21	0.008830101
30	0xbc5315a3	-0.012883577
31	0xbc9a5514	-0.018839397
32	0x3cae1ddd	0.021254474
33	0xbcc90240	-0.024537206
34	0x3c63cb34	0.013903428
35	0x3cad8657	0.021182222
36	0x3c79bec8	0.01524324
37	0xbca38fab	-0.019965967
38	0xbb42f30b	-0.0029746916
39	0x3bd6b983	0.0065528764
40	0x3b84efa0	0.004056886
41	0x3ca74dcc	0.020422839
42	0x3bf1b559	0.0073763547
43	0xbc22bfaf	-0.009933396
44	0x3ace227d	0.0015726831
45	0xbc91228f	-0.017716674
46	0xbc08f41a	-0.00835898
47	0xbc45a386	-0.012062913
48	0x3b03fe18	0.0020140465
49	0xbc925c88	-0.017866388
50	0x3d4e4566	0.050359152
51	0xbb80aa5c	-0.0039265584
52	0xbc620282	-0.013794543
53	0xbd81f660	-0.063458204
54	0xbcc5b854	-0.024135746
55	0x3cedc539	0.029024707
56	0x3b7ad5b6	0.0038274354
57	0x3bb2dd0e	0.0054584807
58	0x3c407aec	0.011748057
59	0x3c1ee4b2	0.00969808
60	0xba873d09	-0.0010317873
61	0x3ccb4cce	0.024816897
62	0x3d188bde	0.037242763
63	0x3b25b0bd	0.0025282346
64	0x39e30173	0.00043297894
65	0x3c9f7b69	0.019468026
66	0x3bcb0087	0.006195131
67	0x3c5f4da4	0.013629351
68	0x3cbedd68	0.023298934
69	0x3b700649	0.003662484
70	0x3b791847	0.0038008855
71	0x3bba9c00	0.005694866
72	0xbceda6f5	-0.029010275
73	0xbacf5c0a	-0.0015820276
74	0xbb0a20c2	-0.0021076654
75	0x3c52f67a	0.012876147
76	0xbbda631d	-0.0066646473
77	0x3c87bb48	0.016568795
78	0x3c8f81b8	0.01751791
79	0x3cb4fb21	0.022092404
80	0x3c6d4e85	0.014484053
81	0x3c4fcf86	0.012683755
82	0x3b5c2b36	0.0033595092
83	0x3c0b2b25	0.008494173
84	0x3c83e74c	0.016101502
85	0x3c005b69	0.007834294
86	0x3c089070	0.008335218
87	0x3b6fe257	0.0036603415
88	0x3b1a600d	0.0023555786
89	0x3c345ae8	0.011008002
90	0x3c23805e	0.009979336
91	0xbd0137f0	-0.031547487
92	0x3c93cede	0.018042978
93	0x3bc5fdf5	0.006042237
94	0x3bcbaa55	0.0062153735
95	0xbc22e6b6	-0.009942701
96	0xbb0c4dbb	-0.0021408636
97	0x3c262471	0.010140524
98	0xb9496aa5	-0.00019208582
99	0x3b8d11c2	0.0043050954
100	0xbca9aa99	-0.02071123
101	0x3bc696f4	0.0060604755
102	0xbc4dab50	-0.012553051
103	0x3c4136ef	0.011792882
104	0x3c3fc96d	0.0117057385
105	0x3d0af4a6	0.03392472
106	0xbb0dd1a2	-0.0021639843
107	0xbc82be63	-0.015959924
108	0xbc8283e0	-0.015932024
109	0x3c0eb5d7	0.008710346
110	0xbc39fa1a	-0.011351133
111	0x3cdb64f8	0.026781544
112	0xbb28c7d1	-0.0025753865
113	0xbc9eb4e6	-0.019373368
114	0x3c30abae	0.010783119
115	0xbbfaf4e2	-0.007658587
116	0xbcd463c2	-0.025926474
117	0x3b94a602	0.0045363912
118	0x3bce5d18	0.0062977187
119	0xba9f7c90	-0.001216786
120	0xbc0bdde8	-0.008536793
121	0x3c74fba7	0.014952577
122	0xbc55e170	-0.013054237
123	0xbc377e28	-0.011199512
124	0xba639726	-0.00086818857
125	0xbc0e530e	-0.008686794
126	0xbba2607a	-0.0049553486
127	0xbc3f5947	-0.011679
128	0xbc165ffe	-0.00917816
129	0x3b64868d	0.0034870238
130	0xbbc6559b	-0.0060526854
131	0x3bc38a07	0.005967382
132	0xbc2aa333	-0.010414886
133	0xbbd99d02	-0.0066410312
134	0xbb85cd2e	-0.004083297
135	0xbc2aedd7	-0.010432682
136	0xbc76b180	-0.015056968
137	0xbc49089f	-0.012270122
138	0x3ba75c6a	0.005107452
139	0xba74cff5	-0.00093388493
140	0xbc49ba9e	-0.012312559
141	0x3b150ab8	0.0022741985
142	0xbbd33536	-0.006445552
143	0x3aeda6de	0.0018131395
144	0xbc8a9692	-0.0169175
145	0xbbf0af47	-0.0073451134
146	0x3d1b028a	0.03784422
147	0x3c39a29d	0.011330274
148	0xbcd74607	-0.026278509
149	0xbcd26619	-0.02568345
150	0xbb68ab2d	-0.003550242
151	0xbb3891b3	-0.0028163015
152	0xba2f6566	-0.000669083
153	0x3b908489	0.0044103307
154	0xbc00376e	-0.0078257155
155	0x3d065a12	0.03280074
156	0x3a861335	0.0010229113
157	0xbb8537e5	-0.004065501
158	0xbc801b27	-0.015637947
159	0x3c294000	0.0103302
160	0x3c761229	0.015018978
161	0xbbd24fea	-0.006418218
162	0xbba3cfa1	-0.0049991165
163	0xbc1adb94	-0.009451766
164	0xbcbcf8f6	-0.023067933
165	0x3cf90f04	0.030402668
166	0x3bd645dd	0.00653909
167	0xbc7d1aea	-0.015448311
168	0x3cb39749	0.021922724
169	0xbc0b8107	-0.008514649
170	0xbbc22edc	-0.005925996
171	0x3c9f9020	0.019477904
172	0xbce776d8	-0.028254911
173	0xbc6e7a45	-0.0145555185
174	0xbd05cedf	-0.03266799
175	0x3c6a9acd	0.014319134
176	0x3c6198a7	0.013769305
177	0xbc21e081	-0.009880186
178	0xbc86a7d4	-0.016437449
179	0x3c7deade	0.015497891
180	0xbbf2cc54	-0.0074096117
181	0x3c1a2c41	0.009409965
182	0x3cdfad13	0.027304208
183	0xbbe2f78f	-0.006926484
184	0x3c1cbb9a	0.009566212
185	0x3ae0868b	0.0017129941
186	0x3b649fdc	0.0034885323
187	0x3b7b7ed5	0.0038375158
188	0xbc0a79ef	-0.008451923
189	0xbc3f08b7	-0.011659793
190	0x3cb475f4	0.0220289
191	0x3c1ad9d7	0.009451351
192	0x3bdb1dbe	0.006686895
193	0x3ba6c16d	0.005088976
194	0x3c13948f	0.009007587
195	0x398a019b	0.00026322607
196	0xbb90a67c	-0.0044143777
197	0xbba9a4df	-0.005177125
198	0x3c93aeef	0.01802775
199	0x3c5d1e98	0.013496064
200	0x3c83ea49	0.016102927
201	0xbd073b52	-0.033015557
202	0x3aa4abc6	0.00125634
203	0x3b88da3c	0.004176406
204	0x3c850c4d	0.016241217
205	0x3be34293	0.0069354265
206	0xbb2aa03d	-0.002603545
207	0x3b01de08	0.0019816179
208	0xba2fe109	-0.0006709253
209	0x3c38e5bc	0.011285242
210	0x3c4e1b32	0.012579726
211	0xbc1949fe	-0.00935602
212	0xbaf94ae1	-0.0019019508
213	0xbc32e64a	-0.010919163
214	0x3c78f929	0.015196123
215	0x3cb06f54	0.02153746
216	0x3ba3a0c0	0.004993528
217	0x3a891e43	0.0010461289
218	0x3c9f5ab6	0.019452434
219	0xbca707cd	-0.020389462
220	0x3be6ce06	0.007043603
221	0xbcd5cce8	-0.026098683
222	0x3c69d884	0.014272813
223	0xbac79d34	-0.0015229345
224	0xbc2de567	-0.010613776
225	0x3c195956	0.009359678
226	0x3c6e42b7	0.014542273
227	0xbc8b8e7e	-0.017035719
228	0x3c4300cc	0.011902045
229	0xbc9c1060	-0.019050777
230	0x3ac58b0d	0.0015071348
231	0x3c9ae442	0.01890767
232	0xbcdbde83	-0.0268395
233	0x3c285a84	0.010275487
234	0x3b94c6d5	0.004540304
235	0xbbb5a75a	-0.0055436315
236	0x3d0a0d5a	0.03370414
237	0x3b912b4c	0.00443021
238	0x3be970a0	0.0071240216
239	0xbccbd2d9	-0.024880813
240	0xba5a9a5a	-0.000833904
241	0x3c960fb2	0.018318031
242	0x3c85e652	0.016345177
243	0x3af09d75	0.0018357473
244	0xbc813697	-0.0157731
245	0xbc3ba57c	-0.011453029
246	0xbb4d09c4	-0.0031286338
247	0x3b3eae2d	0.0029095516
248	0x3bdac79a	0.0066766264
249	0x3ad5a042	0.0016298371
250	0x3bc2429b	0.00592835
251	0xbb8c9fc9	-0.004291509
252	0xbd1617d3	-0.036643814
253	0x3c847245	0.01616777
254	0x3b5e48fe	0.0033918018
255	0x3cbda9cf	0.02315226

conv1.lin.weight f4 [256, 31]
0	0xbe0c7976	-0.13718209
1	0xbdaafc82	-0.08348943
2	0x3d70b795	0.058768827
3	0xbd10884d	-0.035286237
4	0x3e2062d8	0.15662706
5	0x3caf991e	0.021435317
6	0xbd026152	-0.031831093
7	0xbd12eead	-0.03587215
8	0xbb2e34e8	-0.0026581828
9	0x3dab714f	0.08371221
10	0xbd197dce	-0.037473492
11	0xbc2a137f	-0.010380625
12	0xbcc653e7	-0.02420993
13	0x3caf3caa	0.021391232
14	0xbbc62f2e	-0.0060481047
15	0x3e62c2c7	0.22144614
16	0x3cfbf7c7	0.030757798
17	0x3e64af2e	0.22332451
18	0xbb55bf52	-0.0032615256
19	0x3cfc2a26	0.030781817
20	0xbaba5348	-0.0014215494
21	0xbafd88d7	-0.001934315
22	0xbacdc290	-0.0015698243
23	0xbac919dc	-0.001534279
24	0x3cddd725	0.027080128
25	0xbaf9d5e6	-0.0019060939
26	0xb93cee55	-0.00018017863
27	0xbadec62a	-0.0016996313
28	0xbadd735f	-0.0016895345
29	0xb91c5c62	-0.00014911735
30	0x3cddb03e	0.027061578
31	0xbd3c8e01	-0.046033863
32	0xbe04a655	-0.12954076
33	0xbbcf9c98	-0.006335806
34	0x3e004e30	0.12529826
35	0xbcd8c6f5	-0.026462058
36	0xbc71dfb1	-0.014762805
37	0x3bec40bd	0.007209866
38	0x3daef2bd	0.085423924
39	0x3d524d83	0.051343452
40	0xbbed8e7f	-0.007249653
41	0x3c45ebb6	0.012080124
42	0x3c115c13	0.00887205
43	0xbd11edc4	-0.03562714
44	0xbbaab33b	-0.005209354
45	0x3e152886	0.1456624
46	0xbe34401f	-0.17602585
47	0xbce0aa88	-0.027425066
48	0xbe3332f3	-0.17499904
49	0x3b3c65a3	0.0028747104
50	0xbce0a19d	-0.027420813
51	0x3a2b663c	0.00065383664
52	0x3afbf845	0.001922377
53	0x3b19de41	0.002347842
54	0x3a2c26f5	0.00065670843
55	0xbcd225c1	-0.025652768
56	0x3af9c7a0	0.0019056685
57	0x3ab88194	0.0014076703
58	0x3b209be6	0.0024506985
59	0x3a2b4a12	0.00065341697
60	0x3ad127b6	0.0015957269
61	0xbcd21103	-0.025642877
62	0x3b947058	0.004529994
63	0xbcff9f66	-0.031203937
64	0xbe381917	-0.17978321
65	0xbc1230b7	-0.008922747
66	0xbd282440	-0.041050196
67	0x3d25a2b4	0.04043837
68	0x3daf1786	0.085494086
69	0x3dd621a2	0.10455634
70	0x3cb53d69	0.02212401
71	0x3dc7f17c	0.09762856
72	0x3e29eac7	0.16593467
73	0xba5d2178	-0.0008435468
74	0x3ce3d501	0.02781153
75	0x3c5f28c6	0.013620561
76	0x3d1d75ed	0.03844254
77	0xbe6925c6	-0.22768316
78	0xbcda22cd	-0.026627922
79	0xbdff7fe5	-0.12475566
80	0x3b57a188	0.0032902677
81	0xbcda3ca9	-0.026640253
82	0x3a19a4c6	0.000586104
83	0x3abff7e7	0.0014646024
84	0x3adfa9a0	0.0017064102
85	0x3a1c7ea8	0.0005969801
86	0xbcc7c8b0	-0.024387687
87	0x3ac35294	0.001490193
88	0x3a393537	0.00070651196
89	0x3b2b1405	0.0026104462
90	0x3a19c400	0.0005865693
91	0x3a6fb95c	0.0009144747
92	0xbcc6f270	-0.024285525
93	0x3e25a0a2	0.16174558
94	0xbda08f4b	-0.07839831
95	0xbd7f8301	-0.062380794
96	0xbda59794	-0.08085552
97	0xbd43bae1	-0.047785643
98	0xbc9807ad	-0.018558348
99	0xbd111f04	-0.03542997
100	0x3dd277ac	0.10276732
101	0x3bb03c28	0.005378265
102	0x3d05dbb4	0.03268023
103	0x3d80aaa8	0.0628255
104	0x3a315f0a	0.0006766176
105	0x39b24aff	0.00034006682
106	0x3d394205	0.045228977
107	0xbdd54cd8	-0.104150474
108	0x3e06fca4	0.13182312
109	0x3cb2acd3	0.021810925
110	0x3d7e0d47	0.06202438
111	0xb99a35a3	-0.0002941313
112	0x3cb401f3	0.021973586
113	0xba818ba2	-0.0009883533
114	0xba454633	-0.0007525414
115	0xb9a31085	-0.0003110209
116	0xba7f328d	-0.00097350107
117	0x3ca7442a	0.020418245
118	0xba4712ec	-0.0007594067
119	0x39ec3396	0.00045051862
120	0xb9a50a36	-0.0003147886
121	0xba6e582e	-0.0009092119
122	0x39eec624	0.00045542524
123	0x3ca75290	0.020425111
124	0x3d8c38db	0.06846782
125	0xbd791c77	-0.06081816
126	0xbe36e969	-0.17862476
127	0x3da6fd09	0.081537314
128	0xbe2caab1	-0.16861989
129	0xbcf8260b	-0.030291578
130	0x3e0e18fa	0.13876715
131	0x3d2d1f6c	0.042266294
132	0xbd05cb0f	-0.032664355
133	0xbd6e55d9	-0.05818734
134	0x3bf176e1	0.007368908
135	0x3c194cfc	0.009356733
136	0x3cbb5559	0.022867845
137	0x3c96c34f	0.018403677
138	0xbd65ae05	-0.05607416
139	0xbe60fd8c	-0.2197172
140	0xbd04a48d	-0.03238349
141	0xbe47dead	-0.19518538
142	0x3ab0b7c8	0.0013482505
143	0xbd06071c	-0.032721624
144	0x3ae5920e	0.0017514841
145	0x3b143c0e	0.0022618803
146	0x3b4b078a	0.0030979835
147	0x3af8c967	0.0018980921
148	0xbceb1b9e	-0.028699692
149	0x3b0e1d01	0.0021684768
150	0x3a8c6ff5	0.0010714518
151	0x3a9f83d4	0.0012170025
152	0x3acaf5c3	0.001548462
153	0x3a50b0fb	0.00079609425
154	0xbce92a38	-0.028462514
155	0xbcda9b8c	-0.026685499
156	0x3d5d3de7	0.054014113
157	0x3cacf6bf	0.021113751
158	0x3db9c42e	0.090706214
159	0x3d8eded9	0.069760986
160	0xbc4e7ab2	-0.012602495
161	0xbd605412	-0.054767676
162	0x3d9d156f	0.07670104
163	0x3be81ace	0.0070832735
164	0xbd5db8e4	-0.054131404
165	0xbdb57711	-0.08860601
166	0xbc0e7b2e	-0.0086963605
167	0xbb83fd30	-0.004027985
168	0x3cc255fb	0.02372264
169	0xbd7daf7a	-0.061934926
170	0x3e4f73ee	0.20259067
171	0x3d019ac9	0.031641755
172	0x3e7b1102	0.24518207
173	0xbb2ed2cf	-0.0026675945
174	0x3d007e58	0.03137049
175	0xbabb345d	-0.0014282573
176	0xbab03620	-0.0013443865
177	0xbac23e85	-0.0014819658
178	0xbac1392c	-0.001474177
179	0x3ce4c49d	0.027925784
180	0xbaadb19a	-0.0013251782
181	0xb7f8dd76	-2.966703e-05
182	0xbb38554f	-0.002812702
183	0xbaa4aed9	-0.0012564316
184	0xb843b445	-4.6659512e-05
185	0x3ce6031a	0.02807765
186	0x3a631f70	0.00086640473
187	0xbdd83b48	-0.10558182
188	0xbd3c0857	-0.04590639
189	0x3d44b22e	0.048021488
190	0xbab7f67b	-0.0014035249
191	0xbd3604f5	-0.04443832
192	0xbc1ae009	-0.009452828
193	0x3d940806	0.07228093
194	0xbd90fcf4	-0.07079497
195	0xbd930c99	-0.07180137
196	0x3c8d2b14	0.017232455
197	0xbb77b17f	-0.0037795005
198	0xbc755105	-0.01497293
199	0x3d314dd7	0.043287124
200	0x3d5f76d9	0.0545567
201	0x3e31eaaa	0.17374673
202	0x3cca3771	0.02468464
203	0x3c981da0	0.018568814
204	0xba0f448d	-0.0005465232
205	0x3cc948a6	0.024570774
206	0xba168834	-0.0005742342
207	0xba253c64	-0.00063032494
208	0x361b9074	2.3180883e-06
209	0xb9f24030	-0.0004620566
210	0x3cb0428a	0.021516103
211	0xba1e55de	-0.0006040017
212	0x39c8ce2d	0.00038300586
213	0xba311e5f	-0.000675654
214	0xb9f42852	-0.00046569348
215	0x3a39803e	0.00070762995
216	0x3cbcba4f	0.023038058
217	0x3d6fc0f5	0.058533628
218	0x3d76ba64	0.06023635
219	0x3e1a7306	0.1508294
220	0xbe0941b6	-0.13403973
221	0x3e2f1b7a	0.17100325
222	0x3d76e053	0.060272526
223	0x3dc32b90	0.09529793
224	0xbd626922	-0.055276044
225	0xbd3328ac	-0.04373996
226	0xbdec8db1	-0.11550463
227	0xbd947cd1	-0.07250369
228	0xbc2007cd	-0.009767485
229	0x3d96a0c3	0.073548816
230	0xbdf18e15	-0.11794678
231	0x3c0c9775	0.008581032
232	0x3e769c94	0.24083167
233	0x3cf3e766	0.029773425
234	0x3e0ec66a	0.13942876
235	0xbb29a156	-0.0025883517
236	0x3cf37c72	0.029722426
237	0xbaa28324	-0.0012398702
238	0xbb2c0948	-0.002625065
239	0xbb3a1531	-0.0028393979
240	0xba9d0614	-0.0011979961
241	0x3cd8b64e	0.026454117
242	0xbb1869c9	-0.0023256412
243	0xba9c8e0a	-0.0011944186
244	0xbb3777c5	-0.0027994972
245	0xbaa4861d	-0.0012552176
246	0xba9a1b35	-0.0011757376
247	0x3cd91636	0.026499849
248	0xbe1ec99c	-0.15506595
249	0xbd8d4a5d	-0.06898949
250	0x3e3a1349	0.18171419
251	0xbdca0a19	-0.09865207
252	0x3d5b55ca	0.05354861
253	0xbc703a49	-0.014662334
254	0xbdc9320c	-0.09823999
255	0xbdb6eab4	-0.08931485

conv2.att_src f4 [1, 2, 64]
0	0xbd5f84ba	-0.054569937
1	0x3e2ffdbd	0.17186637
2	0x3d9ae990	0.0756408
3	0x3daae668	0.08344728
4	0xbe708945	-0.23489864
5	0x3e14d06a	0.14532629
6	0xbe2728c1	-0.1632414
7	0x3cf70cdc	0.030157499
8	0x3d66f8ce	0.056389622
9	0xbdad5731	-0.08463896
10	0xbe3ab4bc	-0.18233007
11	0xbe42c4e3	-0.19020419
12	0xbd23b0e3	-0.039963614
13	0x3e2e595a	0.17026272
14	0xbe57d2ba	-0.2107648
15	0xbe205188	-0.15656102
16	0x3e1b4f28	0.15166914
17	0xbe183427	-0.14863645
18	0x38e30687	0.00010825419
19	0x3e5b9869	0.21444859
20	0xbdabd421	-0.0839007
21	0x3db0040d	0.085945226
22	0x3d9454d9	0.07242746
23	0xbe77d62b	-0.24202792
24	0x3e8ba6ac	0.27275598
25	0x3e59d2ed	0.21271868
26	0xbc097096	-0.008388659
27	0x3e8cda11	0.2751012
28	0x3e9060a1	0.28198722
29	0x3d9f70a0	0.077851534
30	0xbde8034f	-0.11328756
31	0xbc579a2b	-0.013159315
32	0x3e359d37	0.17735754
33	0xbe718112	-0.23584393
34	0xbe461fe7	-0.19348107
35	0xbd1232b4	-0.035692886
36	0xbe4ee62d	-0.20204993
37	0x3d7cba4e	0.06170111
38	0x3ea6a134	0.32544863
39	0xbc8c81c8	-0.017151728
40	0x3deed733	0.1166214
41	0x3d126261	0.035738353
42	0xbde706f0	-0.1128062
43	0xbe1ea8e8	-0.1549412
44	0xbe3725fa	-0.1788558
45	0x3e4de615	0.201073
46	0xbe282caf	-0.16423295
47	0x3d7bcf3a	0.061476924
48	0xbb3ed6ec	-0.0029119803
49	0x3e89f149	0.26941898
50	0x3ba0a8a5	0.0049029165
51	0x3e003a93	0.12522344
52	0x3d6b2c74	0.05741544
53	0x3e1c327a	0.1525363
54	0x3e84a8df	0.25910088
55	0xbe0d696f	-0.13809751
56	0xbad57520	-0.0016285516
57	0xbea01c1a	-0.3127144
58	0x3d9df41a	0.07712574
59	0x3e530760	0.20608282
60	0xbe9e3822	-0.309022
61	0x3d1e44c3	0.038639795
62	0x3ce25989	0.027630584
63	0x3d52ddc5	0.051481027
64	0xbe4e3b63	-0.20139842
65	0xbe0c813d	-0.13721175
66	0x3e7e5106	0.24835595
67	0xbda1f89e	-0.07908748
68	0x3dc6c541	0.09705592
69	0xbe28af23	-0.1647306
70	0x3e63da01	0.2225113
71	0xbd48c50d	-0.049016047
72	0x3dc1477a	0.09437461
73	0xbdd4c02e	-0.10388218
74	0x3e7ca84c	0.24673575
75	0x3d475bd6	0.048671566
76	0xbd5f2dad	-0.05448692
77	0xbe1c9be6	-0.15293846
78	0x3e5089da	0.20365086
79	0xbd759b42	-0.05996252
80	0x3e147870	0.14499068
81	0x3d1fef8a	0.0390468
82	0x3ea1d4e4	0.31607735
83	0x3e156e96	0.14592966
84	0xbea8ec7c	-0.32992923
85	0x3c4882e5	0.012238239
86	0x3dc4a276	0.096012995
87	0xbe6accfd	-0.2292976
88	0x3e43df61	0.19128181
89	0xbe63c153	-0.22241716
90	0xbc39f220	-0.011349231
91	0x3e8d8da1	0.27647117
92	0xbd9d21dc	-0.07672474
93	0x3ea31ff9	0.3186033
94	0x3dc7dd8d	0.09759054
95	0xbd115e13	-0.035490107
96	0xbdcd631b	-0.100286685
97	0xbd89aac4	-0.06722024
98	0x3c09a936	0.008402159
99	0xbe769ef3	-0.24084072
100	0x3d014d45	0.03156783
101	0xbe4971b5	-0.19672282
102	0x3e2ce4e5	0.16884191
103	0xbd46c256	-0.048525177
104	0x3e4b08a2	0.19827512
105	0x3cd91415	0.026498834
106	0x3e96a591	0.29423192
107	0xbe567920	-0.20944643
108	0x3dacea9f	0.08443188
109	0xbe84b326	-0.2591793
110	0xbe84ba42	-0.25923353
111	0xbae74f86	-0.0017647601
112	0x3db0b83d	0.08628891
113	0x3e488f7a	0.19585982
114	0x3e4ea8a8	0.20181525
115	0xbcde3a5f	-0.027127443
116	0x3e5ff64f	0.21871303
117	0x3be112c0	0.0068686903
118	0x3e2fd926	0.1717268
119	0x3e30c8a2	0.17264035
120	0x3e55748e	0.20845243
121	0x3dcd525e	0.10025476
122	0xbe01da74	-0.1268099
123	0x3ea3e420	0.32009983
124	0x3e03f6e2	0.12887147
125	0x3d38a448	0.045078546
126	0x3db9e9b2	0.09077777
127	0x3dc73f0f	0.09728824

conv2.att_dst f4 [1, 2, 64]
0	0x3ce40efd	0.027839178
1	0xbe28505c	-0.16436905
2	0xbe44edde	-0.19231364
3	0xbe38ca4f	-0.18045925
4	0xbdb28169	-0.08716089
5	0x3db9623f	0.09051942
6	0x3e34545d	0.17610307
7	0x3d4f225d	0.05056988
8	0xbe2f726c	-0.17133492
9	0xbe2727db	-0.16323797
10	0xbcbc7d19	-0.02300887
11	0xbe00b89b	-0.12570421
12	0xbe5186d1	-0.20461585
13	0xbe102fe5	-0.1408077
14	0x3e4b930d	0.19880314
15	0x3e4dff21	0.20116855
16	0xbe1c143a	-0.15242091
17	0x3ddaf4ca	0.10691221
18	0x3e7469ba	0.23868456
19	0x3caafee5	0.020873496
20	0x3e6d28b5	0.2316006
21	0xbc85e2f1	-0.016343566
22	0x3e17f7c6	0.14840612
23	0x3da5e060	0.08099437
24	0xbe877924	-0.2645961
25	0xbe4bb6fb	-0.1989402
26	0xbe7c2f31	-0.24627377
27	0xbd899dfd	-0.06719587
28	0xbd04a17a	-0.03238056
29	0xbdad61c5	-0.08465914
30	0xbd7bc49f	-0.06146681
31	0xbdf9de46	-0.122005984
32	0xbd89ac7f	-0.06722354
33	0x3e6ad800	0.2293396
34	0x3e5c63f8	0.2152251
35	0x3e0b0277	0.13575159
36	0xbe194428	-0.14967406
37	0x3e891d16	0.26780003
38	0x3d86e0e5	0.06585864
39	0xbe04a622	-0.12954
40	0xbc7aed8a	-0.015315423
41	0xbe9687b4	-0.29400408
42	0xbe90609d	-0.2819871
43	0x3e511375	0.20417579
44	0xbe42ce5a	-0.1902403
45	0xbe8db434	-0.27676547
46	0xbd02c862	-0.03192938
47	0x3e3d5028	0.18487608
48	0x3d033f19	0.032042596
49	0xbe849e5c	-0.2590207
50	0xbe2b6616	-0.16738161
51	0x3e3dd4f1	0.18538262
52	0xbe7226bf	-0.23647593
53	0xbe24ce0c	-0.16094226
54	0x3e6ae261	0.22937919
55	0x3dce306b	0.10067829
56	0x3d12f81f	0.035881158
57	0xbe683a25	-0.2267843
58	0xbe165610	-0.14681268
59	0xbd70f506	-0.058827423
60	0x3ea829ec	0.32844484
61	0xbe82548c	-0.2545513
62	0x3a98b39d	0.0011650209
63	0x3dec3649	0.115337916
64	0xbe69d7a5	-0.22836168
65	0xbd82ad8a	-0.06380756
66	0x3d8ada40	0.06779909
67	0x3e539fdb	0.20666449
68	0xbe276f3d	-0.16351028
69	0x3c2b8466	0.010468578
70	0xbe8ae117	-0.27124855
71	0x3e449798	0.19198453
72	0xbde0f8c6	-0.1098495
73	0xbdd748a5	-0.10511903
74	0x3d8874d8	0.06662911
75	0x389f267d	7.58888e-05
76	0x3d4415a6	0.047872208
77	0x3e3f2d25	0.18669565
78	0xbd05ecc7	-0.03269651
79	0x3e81651e	0.2527246
80	0xbe1fcee6	-0.15606269
81	0x3e8421a0	0.25806904
82	0xbc9f9dba	-0.01948439
83	0x3d225346	0.039630197
84	0x3e86d110	0.26331377
85	0xbe274697	-0.16335522
86	0xbe285bd7	-0.16441284
87	0xbc7cf1a3	-0.01543847
88	0x3e24e79b	0.16103975
89	0x3dfb8b8d	0.122824766
90	0x3e8bc074	0.27295268
91	0xbe22fd2e	-0.15916893
92	0x3e326883	0.1742268
93	0x3e6b7a3c	0.22995847
94	0xbe87be47	-0.26512358
95	0x3e14d09c	0.14532703
96	0x3e5a9e61	0.2134948
97	0x3e41761d	0.18892713
98	0xbe131ac5	-0.1436568
99	0xbe5b6d41	-0.21428396
100	0xbe0187b9	-0.1264943
101	0x3e9f2e20	0.31089878
102	0xbdf18c25	-0.117943086
103	0x3d5e7bbc	0.05431722
104	0x3d894b91	0.06703866
105	0xbe814e44	-0.25255024
106	0xbe48d4b7	-0.19612394
107	0xbe60498a	-0.21903053
108	0x3d120cc8	0.03565672
109	0x3e99e652	0.30058533
110	0xbd208f79	-0.039199326
111	0x3d644a47	0.0557349
112	0xbe84ab48	-0.25911927
113	0x3e06606d	0.13122721
114	0x3e86852d	0.2627348
115	0x3d4d5b09	0.050135646
116	0x3d77f436	0.060535632
117	0x3dc2376a	0.09483226
118	0x3a7d95a0	0.000967348
119	0xbcf32b75	-0.029683808
120	0xbd3d884e	-0.04627257
121	0x3e2feec0	0.1718092
122	0xbd038ff5	-0.03211971
123	0xbd8c851c	-0.06861326
124	0x3dd52bde	0.104087576
125	0xbe8ab066	-0.27087706
126	0xbe2c4d3a	-0.16826335
127	0x3d5a8235	0.05334683

conv2.bias f4 [128]
0	0xbb98cfeb	-0.0046634576
1	0x393eb75a	0.00018188116
2	0xbb4a5aef	-0.0030876955
3	0x3c84ca0f	0.01620963
4	0x3ce12cda	0.027487207
5	0x3c9ead7b	0.019369831
6	0x3c6a55db	0.014302696
7	0x3bd6c6c0	0.0065544546
8	0x3c86b638	0.01644431
9	0xbb03477f	-0.0020031629
10	0xbbc586e9	-0.0060280454
11	0x3ce50589	0.02795674
12	0x3bcd0167	0.0062562707
13	0x3c6b7150	0.0143702775
14	0xbc2cf111	-0.010555522
15	0xbc0fa377	-0.008767
16	0xbbffc0d7	-0.0078049707
17	0xbb9662d7	-0.0045894193
18	0xbbd9c855	-0.006646196
19	0xbbe9d299	-0.007135701
20	0x3c655126	0.013996398
21	0x3c974a0d	0.018467927
22	0x3c0ae05d	0.008476344
23	0x3c6c7959	0.014433228
24	0x3c547582	0.012967469
25	0xbc19feb1	-0.009399102
26	0xbbd07929	-0.0063620997
27	0xbafcbca2	-0.0019282291
28	0xbc0a997d	-0.008459446
29	0x3c2e52eb	0.010639886
30	0xbb8dd282	-0.004328073
31	0x3c9814ae	0.018564548
32	0x3bfb4f76	0.0076693846
33	0x3c426718	0.0118654
34	0x389a785a	7.3657095e-05
35	0xbb9ab498	-0.0047212355
36	0xbc24f9b4	-0.0100692995
37	0x3c31e135	0.010856916
38	0x3ae8c882	0.0017759951
39	0x390081c8	0.00012255379
40	0x3b9b0448	0.004730735
41	0xbb22f0ef	-0.0024862846
42	0x3bb8d96d	0.0056411535
43	0xbc0602af	-0.008179351
44	0x3c815b53	0.015790617
45	0xbaf31115	-0.001854452
46	0x3c8b39fc	0.016995423
47	0x3c41434f	0.011795833
48	0x3c4fbd5e	0.012679426
49	0xbc1dbcab	-0.0096275015
50	0x3c7fd15c	0.01561388
51	0xbbe5ffd0	-0.0070190206
52	0x3b51ec1d	0.0032031604
53	0x3c9fe66e	0.019519057
54	0xbc0dcabc	-0.008654293
55	0x3c397f4d	0.011321855
56	0x3c966ee2	0.01836342
57	0x3cd77c48	0.02630438
58	0x3c3f9e87	0.011695511
59	0x3c8e3eed	0.01736399
60	0x3c5756cc	0.013143253
61	0x3bcf58f5	0.006327743
62	0x3c8348e1	0.016025962
63	0xbc20d0b4	-0.009815384
64	0x3cba9b5c	0.02277916
65	0xbb0c3405	-0.002139331
66	0xbbefc9d3	-0.0073177605
67	0x3c0b6fb9	0.0085105235
68	0x3c1acf61	0.009448857
69	0x3a833389	0.0010009866
70	0x3cad23d4	0.021135248
71	0x3c6ac4fe	0.014329193
72	0xbb281066	-0.002564454
73	0xbc2fd193	-0.010731119
74	0xbc30f918	-0.010801576
75	0xbb9f610f	-0.004863865
76	0xb794b5fb	-1.7727716e-05
77	0x3c85e207	0.01634313
78	0x3c6ef610	0.014585033
79	0x3c254a00	0.010088444
80	0x3c590ac3	0.013247195
81	0x3c549600	0.012975216
82	0xbc6d9aa9	-0.014502206
83	0x3c261918	0.010137819
84	0x3c51e660	0.012811273
85	0x3c43e26f	0.011955841
86	0x3ae39839	0.0017364091
87	0x3c81070e	0.015750434
88	0x3be82047	0.007083926
89	0x3c8aef70	0.016959876
90	0x3c1c7896	0.009550234
91	0x3be5f238	0.0070174
92	0x3a811dcf	0.0009850803
93	0xbc4d6d44	-0.012538258
94	0xba88c444	-0.0010434468
95	0x3c0dac45	0.008647029
96	0x3bcfb5a6	0.006338793
97	0x3bd650c3	0.0065403893
98	0x3c689cfc	0.014197584
99	0xbb3e7f16	-0.0029067448
100	0x3af8ee58	0.001899193
101	0xbc20d5af	-0.009816571
102	0xbb5d6069	-0.0033779389
103	0x3c03ba88	0.008040078
104	0xbb8c8e3a	-0.0042894157
105	0xbad3abcb	-0.0016149221
106	0xbc24684f	-0.010034635
107	0x3c24356a	0.0100225005
108	0x3c8095b5	0.015696386
109	0xbc31e657	-0.01085814
110	0x3c2875e5	0.0102820145
111	0x3c308286	0.010773307
112	0xbbd982a4	-0.006637888
113	0x3b243687	0.0025056915
114	0xbb283065	-0.002566361
115	0x3a83da6f	0.0010059605
116	0xbbcf6dc6	-0.0063302247
117	0x3c814faa	0.015785057
118	0x3c190469	0.00933943
119	0x3c83ef1f	0.016105233
120	0x3c2e099e	0.01062241
121	0x3c396c0b	0.011317263
122	0xbbd9a402	-0.0066418657
123	0x3a3e1097	0.0007250397
124	0x3c24738d	0.010037315
125	0x3b968f91	0.004594751
126	0xbb37d006	-0.0028047576
127	0x3c5d42ac	0.013504665

conv2.lin.weight f4 [128, 256]
0	0x3c23ddce	0.010001613
1	0xbce7737e	-0.028253313
2	0xbad862d5	-0.0016508946
3	0x3c4acd61	0.012378068
4	0xbc62bbef	-0.013838752
5	0x3ba6574f	0.005076326
6	0xbccc0347	-0.024903907
7	0x3d1fbfe1	0.03900135
8	0x3cc4bf8b	0.024017116
9	0x3b09363e	0.0020936872
10	0xbcbb457b	-0.02286028
11	0xbcb439eb	-0.022000274
12	0xbcb2ec6c	-0.02184125
13	0xbd0537fa	-0.032524087
14	0x3a1c3930	0.00059594493
15	0xbcc7586c	-0.024334155
16	0xbc863511	-0.016382726
17	0xbc6a674b	-0.0143068535
18	0x3cb15761	0.02164811
19	0xbd2fe300	-0.042941093
20	0xbcc71fad	-0.024307096
21	0xbd403688	-0.046927005
22	0xbc92bd91	-0.017912658
23	0xbcb7bc15	-0.022428552
24	0xbc470115	-0.012146254
25	0x3ca7746c	0.020441256
26	0xbb662f69	-0.0035123473
27	0xbaa32830	-0.001244789
28	0xbc0855d5	-0.008321245
29	0xbaefbda7	-0.0018290774
30	0xbc935d4f	-0.017988829
31	0x3c8f5179	0.017494904
32	0xbc1702a2	-0.009216936
33	0xbc0e3bc4	-0.008681241
34	0x3d4b33b4	0.049609855
35	0x3b88dde6	0.004176843
36	0xbb0fd6ce	-0.0021948102
37	0xbcd24d58	-0.025671646
38	0xbbdff888	-0.006835047
39	0x3cb066bc	0.021533363
40	0xbca37770	-0.019954413
41	0xbcc2c41c	-0.023775153
42	0x3cf375f6	0.029719334
43	0x3cc24d85	0.023718605
44	0xbc806330	-0.015672296
45	0xbcb02082	-0.021499876
46	0x3c0fd0d7	0.008777819
47	0xbc533308	-0.012890585
48	0x3c5d0c50	0.013491705
49	0x3c0e54bc	0.008687194
50	0x3bb7f5ed	0.0056140334
51	0xbd016188	-0.031587154
52	0x3ce83746	0.028346669
53	0xbd00b10f	-0.031418856
54	0xbc9d0e22	-0.019171778
55	0xbc6b9bee	-0.014380438
56	0xbcba0d72	-0.02271149
57	0x3927e064	0.00016009953
58	0xbd338df2	-0.04383654
59	0x3d6749be	0.05646681
60	0x3c9cfc85	0.01916338
61	0x3c3376ee	0.010953648
62	0xbbafff0b	-0.0053709797
63	0x3b8c63b5	0.004284347
64	0xbc5264c2	-0.012841405
65	0xbc1fc7fd	-0.009752271
66	0xbd2653c1	-0.040607218
67	0xbd36c373	-0.04461999
68	0x3bc25f07	0.0059317383
69	0xbca4f93c	-0.020138375
70	0xbc3b6f76	-0.011440149
71	0xbcc5735d	-0.024102861
72	0xb99624cb	-0.00028637642
73	0xbb9dc5d6	-0.0048148436
74	0xbc0cda68	-0.008596994
75	0xba91ec8c	-0.0011133119
76	0x3c623e4c	0.013808798
77	0xbc4a6fc5	-0.0123557495
78	0x3c8f5862	0.017498199
79	0x3ac47fc3	0.0014991689
80	0xbc65ebc1	-0.014033259
81	0xbcc81ee4	-0.024428792
82	0x3d61a66e	0.05509036
83	0xbc8e599d	-0.017376715
84	0xbc530e75	-0.012881865
85	0x3c828bdf	0.015935836
86	0x3cef8afd	0.02924108
87	0x3cb21b5e	0.021741565
88	0x3b7333da	0.0037109763
89	0xbbf8b119	-0.007589471
90	0xbc5e3de8	-0.013564564
91	0x3c7c59c5	0.015402262
92	0xbc825660	-0.015910327
93	0xbd47b92f	-0.04876059
94	0x3c3c2a6a	0.011484722
95	0xbc8954e6	-0.016764116
96	0x3b1ba253	0.0023747876
97	0x3c67e7c1	0.0141543755
98	0x3b856ccb	0.004071807
99	0x3c19fbc5	0.009398405
100	0x3ca727cf	0.020404724
101	0xbd72a3ad	-0.059238125
102	0xbb87c7ec	-0.0041437056
103	0xbc95bc54	-0.018278278
104	0xbcdbf282	-0.026849035
105	0xbc761c4b	-0.015021394
106	0xbbebf6b2	-0.007201039
107	0x3bc390ae	0.005968175
108	0x3c0bfe49	0.008544513
109	0xbc82751d	-0.015924985
110	0x3be6b6f4	0.0070408527
111	0x3d5b3ae1	0.05352295
112	0x3c5a99d4	0.01334234
113	0xbc206882	-0.009790542
114	0x3c80efb9	0.015739309
115	0xbcca859a	-0.02472191
116	0xbb24ff9a	-0.0025176764
117	0xbb782eac	-0.0037869615
118	0x3c240788	0.010011561
119	0x3d16587b	0.036705475
120	0xbc25652e	-0.010094924
121	0xba061b43	-0.00051157566
122	0xbc5edba2	-0.013602169
123	0xbcb96fe4	-0.022636361
124	0xbcf1772e	-0.029475775
125	0xbba3771b	-0.0049885637
126	0x3c4caa49	0.012491771
127	0x3d03e02a	0.0321962
128	0x3a4d6b85	0.0007836151
129	0xbbbde961	-0.005795643
130	0xbbc77d76	-0.006087954
131	0xbd3bafc2	-0.045821913
132	0xbb672432	-0.0035269377
133	0xbcfb7014	-0.030693091
134	0xbbd29315	-0.006426225
135	0x3bf5c5a3	0.007500367
136	0x3bc303a9	0.005951364
137	0x3c755512	0.014973896
138	0xbc9a7f17	-0.01885943
139	0xbce61eae	-0.028090801
140	0x3d268562	0.040654548
141	0x3cea69e6	0.02861495
142	0x3ba8c533	0.005150461
143	0xbd1ce848	-0.03830746
144	0x3b7042a0	0.0036660805
145	0xbcbde153	-0.023178732
146	0xbc9a803b	-0.018859973
147	0xbbc767dd	-0.0060853795
148	0xbc28a887	-0.010294086
149	0x3a20354a	0.00061114563
150	0x3bc0dbf1	0.005885594
151	0x3bd2667b	0.006420908
152	0x3d5d8dc0	0.05409026
153	0x3ca82cd4	0.020529188
154	0xbbcd9c5f	-0.0062747444
155	0x3c830fc7	0.015998734
156	0x3b217339	0.0024635328
157	0x3c259998	0.01010742
158	0xbc212082	-0.009834411
159	0x3c88da29	0.01670559
160	0x3bf5c8bd	0.0075007365
161	0x3bd00002	0.006347657
162	0x3c5e9e79	0.0135875875
163	0xbb803010	-0.0039119795
164	0x3b0a75c0	0.0021127313
165	0xbc6e841e	-0.014557866
166	0x3bd108f4	0.006379241
167	0xbc3ed4c3	-0.011647406
168	0x3c8e1a4b	0.017346522
169	0xbc495d1d	-0.012290266
170	0x3b58edea	0.0033100792
171	0x3ccdaa3a	0.025105584
172	0xbc4ac3bc	-0.012375768
173	0x3bf2b46b	0.0074067614
174	0x3c715335	0.014729311
175	0x3c0065b2	0.007836746
176	0x3c5c5a6c	0.013449293
177	0xbcaccbe3	-0.021093315
178	0xbd12e403	-0.03586198
179	0x3bd665d4	0.0065429006
180	0x3be5a39c	0.007008029
181	0x3c04827e	0.008087752
182	0xbbc09b9b	-0.0058779246
183	0xbbb75ce6	-0.005595791
184	0xbc271ecb	-0.010200213
185	0x3b2d1cfe	0.0026414986
186	0xbbfbb819	-0.0076818583
187	0xbcc00947	-0.023441924
188	0xba584b54	-0.0008250971
189	0x3b9c95ce	0.0047786003
190	0x3c4d13d3	0.0125169335
191	0xbb6bf5b3	-0.0036004602
192	0xbbc20302	-0.0059207687
193	0xbd818174	-0.06323519
194	0xb9a85f10	-0.00032114284
195	0x3ad0061e	0.0015870964
196	0x3c31274b	0.010812591
197	0x3ab36cad	0.0013689004
198	0xbc3dec87	-0.011592037
199	0x3ceeb417	0.029138608
200	0xbcef3d02	-0.029203895
201	0x3c72e08f	0.014824047
202	0xbca5e6e6	-0.020251703
203	0x3d645bb9	0.055751536
204	0xbc2b9b8a	-0.010474095
205	0x3ce0e055	0.02745072
206	0xbd105105	-0.035233516
207	0x3bb0e668	0.0053985603
208	0xbd3f1be0	-0.046657443
209	0xbc2d2225	-0.010567223
210	0xbceaaa98	-0.028645799
211	0x3bf68de5	0.0075242394
212	0xbc04eb5e	-0.008112757
213	0x3a84db5f	0.0010136178
214	0xbab5e0b7	-0.0013876174
215	0xbb432fb2	-0.0029783067
216	0x3c8e2b18	0.017354533
217	0xbc1e4a75	-0.009661307
218	0x3d3044e3	0.043034445
219	0xbac8c5a9	-0.0015317696
220	0x3d091af0	0.033472955
221	0xbc8d82cd	-0.017274285
222	0xbc59dde3	-0.013297531
223	0x3d35117e	0.044206135
224	0xbbb1e31b	-0.0054286844
225	0xbb95eafb	-0.004575131
226	0xbd03c6b4	-0.03217192
227	0x3d0ce8c4	0.03440167
228	0x3d3c96b2	0.04604215
229	0x3ba239fc	0.00495076
230	0x3b7d55ce	0.003865588
231	0x3cc27846	0.023738991
232	0xbaae2ce7	-0.0013288528
233	0xbc80e516	-0.015734237
234	0xbc022de0	-0.007945508
235	0x3cb22329	0.021745281
236	0x3d01c1ab	0.031678837
237	0x3c01e0c5	0.007927124
238	0xbb9bec6b	-0.004758408
239	0x3bfce8ed	0.0077181966
240	0x3c357452	0.011075096
241	0xbcb6bef1	-0.022307845
242	0x3c5b7fb6	0.013397148
243	0x3c3d622b	0.01155905
244	0x3c88dd6e	0.016707148
245	0x3bd1260d	0.00638271
246	0xbb988862	-0.00465493
247	0xbc585b90	-0.013205424
248	0xbc4abfb1	-0.012374804
249	0x3b7caee0	0.0038556382
250	0x3cece814	0.028919257
251	0x3d49c5d2	0.04926092
252	0x3b751144	0.0037394324
253	0x3b2b1736	0.0026106364
254	0x3befbc56	0.0073161526
255	0xbcd5e0f3	-0.02610824

conv3.lin.weight f4 [1, 128]
0	0x3da7f3de	0.08200811
1	0x3da7f9d3	0.08201947
2	0x3e7aed52	0.24504593
3	0xbe5d5498	-0.21614301
4	0xbd1ac4b3	-0.037785243
5	0xbdca77ad	-0.098861076
6	0xbe950c9c	-0.29111183
7	0xbe3eeadd	-0.1864428
8	0xbe9b2825	-0.30304065
9	0x3e2ea3c7	0.17054664
10	0x3e387572	0.18013552
11	0xbd8705ab	-0.06592878
12	0x3e7801df	0.24219464
13	0xbe3de1f6	-0.18543229
14	0x3e0fee57	0.14055763
15	0x3dc9dad2	0.0985619
16	0x3d939626	0.07206373
17	0x3e1c200f	0.15246604
18	0x3e204308	0.1565057
19	0x3e07183d	0.1319284
20	0xbe85555f	-0.26041695
21	0xbd65e649	-0.05612782
22	0xbe7f1401	-0.24909975
23	0xbe247f9b	-0.16064303
24	0xbcf46152	-0.029831562
25	0x3e023d2f	0.12718652
26	0x3dd6c094	0.1048595
27	0x3e710793	0.23538046
28	0x3d95fdad	0.073237754
29	0xbe39651d	-0.18104978
30	0x3e605763	0.21908335
31	0xbdefd842	-0.1171117
32	0xbe812e60	-0.25230694
33	0xbe9dd910	-0.30829668
34	0x3e44bee4	0.19213444
35	0x3e86ba56	0.26314038
36	0x3dfa525e	0.122227415
37	0xbe3bdfad	-0.18347044
38	0x3e81b9a8	0.25336957
39	0x3e5dc543	0.2165728
40	0x3e5c2df6	0.21501908
41	0x3d9b7a7d	0.07591722
42	0x3e7deef1	0.2479818
43	0x3e10aecd	0.14129181
44	0xbe0d5cd5	-0.13804944
45	0x3e38466b	0.17995612
46	0xbddd01f8	-0.10791391
47	0xbdd3d207	-0.10342794
48	0xbe042c7a	-0.12907591
49	0x3e12d3d1	0.14338614
50	0xbe84a3a3	-0.25906095
51	0x3e05e8d1	0.13077094
52	0x3dd11b1d	0.102102496
53	0xbe1900d4	-0.14941722
54	0x3ddf31cf	0.10898172
55	0xbe70755b	-0.23482268
56	0xbe66d93d	-0.22543807
57	0xbdb0eccf	-0.08638918
58	0xbce8f055	-0.028434912
59	0xbdee569d	-0.11637614
60	0xbe6b4afb	-0.22977822
61	0xbc2a47aa	-0.010393063
62	0xbe4c8ae5	-0.19974859
63	0x3e2daf49	0.16961397
64	0xbd8d3360	-0.06894565
65	0x3e7e8f59	0.2485937
66	0x3dca7d52	0.09887184
67	0xbdfc2ccc	-0.12313232
68	0xbe71fc42	-0.23631385
69	0x3e67fc08	0.22654736
70	0xbdf8e500	-0.12153053
71	0xbde74d6c	-0.11294064
72	0x3e64ea74	0.22355062
73	0x3d368fd2	0.04457075
74	0x3e32d38a	0.17463508
75	0x3e673cc7	0.22581778
76	0x3e875c8a	0.2643779
77	0xbe5146ee	-0.20437214
78	0xbe024f98	-0.12725675
79	0xbe8b982b	-0.27264532
80	0xbe3761f2	-0.17908457
81	0xbe1d2c43	-0.15348916
82	0x3db01b89	0.08599002
83	0xbe765d77	-0.24059092
84	0xbe143498	-0.14473188
85	0xbe918683	-0.28422937
86	0x3de7ec70	0.11324394
87	0xbddeaeef	-0.1087321
88	0xbe6dd9d3	-0.23227625
89	0xbe97e29e	-0.29665083
90	0xbe8a175b	-0.26970944
91	0x3e2ccb3a	0.168744
92	0x3e5be5f8	0.21474445
93	0x3da4224e	0.080143556
94	0x3e4c6ecf	0.19964145
95	0xbe3ff8c8	-0.18747246
96	0xbe87aa1e	-0.26496977
97	0xbe973eee	-0.295402
98	0xbd9c75f0	-0.07639682
99	0x3e575be4	0.21031147
100	0x3e6b8a81	0.23002054
101	0x3d996cbf	0.07491445
102	0x3e74e699	0.23916091
103	0xbe091287	-0.13385974
104	0x3e740d5d	0.23833223
105	0x3e1297e5	0.14315756
106	0x3e58dd0b	0.21178071
107	0xbe39199d	-0.18076177
108	0xbe65a638	-0.22426689
109	0x3dbf5444	0.09342244
110	0xbe85b839	-0.26117113
111	0xbd915401	-0.070961006
112	0x3dbb9613	0.09159484
113	0x3d86a691	0.06574739
114	0x3d75d56d	0.06001799
115	0x3e4d6811	0.2005923
116	0x3e46f813	0.1943057
117	0xbe777f06	-0.2416955
118	0xbe531c80	-0.2061634
119	0xbe426151	-0.18982436
120	0xbe53d50d	-0.20686741
121	0xbdddaf88	-0.108244956
122	0x3e325ba9	0.17417778
123	0x3dbd8dd3	0.092555664
124	0xbe92db7d	-0.2868308
125	0x3e1a12ad	0.15046187
126	0x3d8d38b3	0.0689558
127	0xbdc4a67b	-0.09602066
